emotion_model.tflite (tflite, 94120 bytes, 43 tensors)

arith.constant f4 [8]
0	0xbf4557fc	-0.7708738
1	0xbdccff7a	-0.10009666
2	0x3e4de088	0.20105183
3	0x3f9914b5	1.1959444
4	0x3ef2a8b8	0.47394347
5	0xbe941c0f	-0.28927657
6	0xbe9ab8e0	-0.30219173
7	0x3f8fdf70	1.1240063

arith.constant1 f4 [8, 3, 3, 1]
0	0x8886e419	-8.118457e-34
1	0x89b2cf15	-4.304668e-33
2	0x899a4ca9	-3.7146242e-33
3	0x89950bf6	-3.5881693e-33
4	0x0916abca	1.8136368e-33
5	0x8903133a	-1.5777592e-33
6	0x879033ac	-2.1697082e-34
7	0x8961a5d8	-2.716137e-33
8	0x89985d72	-3.6680544e-33
9	0x3eb2e8ba	0.3494318
10	0x3e88f71f	0.26751038
11	0x3e2b153b	0.16707318
12	0xbe7d743f	-0.24751376
13	0xbf10f62b	-0.5662562
14	0xbef8dee3	-0.4860755
15	0xbea220c6	-0.3166563
16	0xbf22677d	-0.6343916
17	0xbee30687	-0.44340917
18	0x3f383f96	0.71972024
19	0x3f1f1eeb	0.6215655
20	0xbdbf9c22	-0.09355952
21	0x3fa43237	1.2827824
22	0x3eada7bf	0.33917043
23	0xbf552ed2	-0.8327457
24	0x3e5eac79	0.2174548
25	0xbf614f0a	-0.8801123
26	0xbfaabbbf	-1.3338546
27	0xbd876c7f	-0.06612491
28	0xbee05b3f	-0.43819615
29	0xbec58cd2	-0.38584
30	0x3f17d17f	0.5930404
31	0xbffb6d77	-1.9642781
32	0xbfd66312	-1.6748984
33	0x405eb87b	3.4800098
34	0x3ffbdb96	1.9676387
35	0xbf5ee2e8	-0.8706498
36	0x3f0162e1	0.505415
37	0x3f5320d5	0.8247197
38	0x3f84b13c	1.0366588
39	0xbf329eb5	-0.6977342
40	0xbd85da6a	-0.065358
41	0x3f88ffaa	1.0703022
42	0xbfffc603	-1.9982303
43	0xbfa5505c	-1.2915149
44	0x3f05b806	0.5223392
45	0x090380c4	1.5829097e-33
46	0x08b551cd	1.09127725e-33
47	0x08cf369c	1.2471198e-33
48	0x0935a4d5	2.1864586e-33
49	0x085fc9db	6.73439e-34
50	0x07f971b3	3.7532182e-34
51	0x88b5045c	-1.0894566e-33
52	0x08e7053d	1.3904038e-33
53	0x08cd9866	1.2373817e-33
54	0xbd8a57f4	-0.06755057
55	0x3d1fabd4	0.038982227
56	0xbc93d4e6	-0.018045854
57	0x3d960120	0.07324433
58	0x3ead2af6	0.3382184
59	0x3e937cb2	0.28806072
60	0x3e2e1216	0.16999087
61	0x3ec7a19d	0.3899049
62	0x3e9ae44a	0.30252296
63	0xbfc092dc	-1.5044818
64	0xbfcb7945	-1.5896384
65	0xbf46f377	-0.7771525
66	0xbfc15f17	-1.5107144
67	0x3dc84ceb	0.09780296
68	0x3f4473d0	0.76739216
69	0x3e6deb60	0.2323432
70	0x401e6269	2.4747565
71	0x3ff899a1	1.9421884

arith.constant2 f4 [8]
0	0x00000000	0.0
1	0x00000000	0.0
2	0x00000000	0.0
3	0x00000000	0.0
4	0x00000000	0.0
5	0x00000000	0.0
6	0x00000000	0.0
7	0x00000000	0.0

arith.constant4 f4 [8, 3, 3, 8]
0	0x08126282	4.405107e-34
1	0x3d2e42f5	0.042544324
2	0x3ac22713	0.001481267
3	0xbcee6b82	-0.029103998
4	0xbdafda2a	-0.08586533
5	0x088793f9	8.159805e-34
6	0x3bd53222	0.0065062204
7	0xbdc4e8b8	-0.096147
8	0x87201292	-1.204252e-34
9	0x3d4d2981	0.05008841
10	0xbd27e198	-0.040986627
11	0xbe30895f	-0.17239903
12	0x3d66b6be	0.05632662
13	0x088abe7d	8.3503565e-34
14	0x3cc679b3	0.024227953
15	0xbe2008e3	-0.1562839
16	0x079f491d	2.3966633e-34
17	0x3d3115c5	0.04323365
18	0xbd5a8e18	-0.053358167
19	0xbdfa2960	-0.12214923
20	0x3d866c8a	0.06563671
21	0x08aefea2	1.0532108e-33
22	0x3d0b7c06	0.034053825
23	0xbd951201	-0.072788246
24	0x88823400	-7.8363155e-34
25	0x3d941707	0.072309546
26	0xbd573066	-0.05253639
27	0x3e24eeb8	0.16106689
28	0xbdeb3aff	-0.11485862
29	0x0880bcbb	7.74809e-34
30	0xbc5798d0	-0.013158992
31	0xbe0d2e7c	-0.13787264
32	0x880abfe3	-4.1753426e-34
33	0x3d938837	0.07203715
34	0xbdd1cd0c	-0.10244188
35	0xbbb51033	-0.0055256127
36	0xbb758f50	-0.0037469454
37	0x088d5b8a	8.50765e-34
38	0xbbbb68a6	-0.005719262
39	0xbdcef4bb	-0.101052724
40	0x08833b17	7.898168e-34
41	0x3d78d72d	0.060752083
42	0xbd99b888	-0.075059
43	0xbdbc07ca	-0.09181173
44	0x3da29eae	0.07940422
45	0x0804db57	3.998014e-34
46	0x3b644de4	0.0034836465
47	0x3cbf4481	0.023348095
48	0x090327f9	1.5787346e-33
49	0xbc9a7193	-0.018852985
50	0xbde50cdc	-0.11184093
51	0x3e41263c	0.18862242
52	0xbddd3e9e	-0.10802959
53	0x08aa2f34	1.02426e-33
54	0xbce0bb70	-0.027433127
55	0x3e01bcef	0.12669729
56	0x08fe624a	1.5310177e-33
57	0xbd098cf0	-0.033581674
58	0xbdc5b02f	-0.09652745
59	0x3e4987f5	0.1968077
60	0xbe2f7f6d	-0.17138453
61	0x88a4cdca	-9.918772e-34
62	0xbd0e7a69	-0.03478471
63	0x3e1b217f	0.15149496
64	0x08e67c0b	1.3871784e-33
65	0xbcf41817	-0.029796643
66	0xbce191c3	-0.027535325
67	0x3d74b590	0.059743464
68	0xbdc717a5	-0.09721307
69	0x889c4008	-9.403962e-34
70	0xbd308e0c	-0.043104216
71	0x3c8a40b4	0.016876556
72	0x880ea05d	-4.2920077e-34
73	0xbcdccb4c	-0.026952408
74	0x3db14638	0.08655971
75	0xbc9ebd54	-0.019377388
76	0xbc607dc3	-0.013701859
77	0x88846a0d	-7.969393e-34
78	0x3d6ed707	0.058310535
79	0xbd92811b	-0.07153531
80	0x88148516	-4.469357e-34
81	0xbcc36b32	-0.023854826
82	0x3ddbd684	0.10734275
83	0x3d10aee0	0.035323024
84	0xbc5c826b	-0.013458828
85	0x88882976	-8.19495e-34
86	0x3d320560	0.043462157
87	0xbde5ac50	-0.112145066
88	0x88111531	-4.365926e-34
89	0xbca43a85	-0.020047436
90	0x3da1c131	0.078981765
91	0x3cb6be26	0.022307467
92	0x3d26eba4	0.04075207
93	0x88a790dd	-1.0085004e-33
94	0x3d0c8c97	0.034313764
95	0xbddb5d02	-0.10711099
96	0x88236039	-4.9164137e-34
97	0xbd270b4f	-0.04078227
98	0x3dd6967f	0.104779236
99	0xbcafc20a	-0.02145483
100	0xbcde2753	-0.02711836
101	0x885c258c	-6.624798e-34
102	0x3d241d22	0.040066846
103	0xbe04c827	-0.12966977
104	0x88233c3f	-4.9121847e-34
105	0xbcb8643f	-0.022508739
106	0x3df15c91	0.11785234
107	0xbc06e10b	-0.008232365
108	0x3d4d630b	0.050143283
109	0x88773f43	-7.4403223e-34
110	0x3cfa49c1	0.030552747
111	0xbe006b08	-0.12540829
112	0x883123bf	-5.330602e-34
113	0xbc911212	-0.017708812
114	0x3ca61451	0.02027336
115	0xbcffbf5f	-0.031219183
116	0x3dfe7862	0.12425305
117	0x8892f56c	-8.844754e-34
118	0x3d042229	0.03225914
119	0xbda76cd3	-0.081750534
120	0x883b9b25	-5.6455637e-34
121	0xbc0dc39d	-0.008652595
122	0x3dbdd1e1	0.09268547
123	0xbd47a9d8	-0.04874596
124	0x3d577227	0.0525991
125	0x88529e31	-6.338053e-34
126	0x3cd5eabd	0.026112908
127	0xbe345341	-0.17609884
128	0x88420132	-5.8381157e-34
129	0xbbdad0e6	-0.0066777347
130	0x3cef31ba	0.029198516
131	0xbb577c8d	-0.0032880635
132	0x3db0c177	0.086306505
133	0x885cfad3	-6.6498684e-34
134	0x3cb65e12	0.022261653
135	0xbdd23cfb	-0.10265537
136	0x883b86fe	-5.643195e-34
137	0xbc65f095	-0.01403441
138	0xbd16ff64	-0.036864653
139	0xbc15798b	-0.009123216
140	0x3da9ad80	0.082850456
141	0x886859ee	-6.9920672e-34
142	0x3ccea5d1	0.025225552
143	0xbd3d4e93	-0.046217512
144	0x88ef6de1	-1.4410122e-33
145	0x3e3cab58	0.18424737
146	0x3c975894	0.018474855
147	0xbc73aa4a	-0.014872143
148	0xbd987b5b	-0.07445403
149	0x082fe1a2	5.2927377e-34
150	0xbd46cd64	-0.04853572
151	0xbc3cb701	-0.011518241
152	0x88e852af	-1.3982431e-33
153	0x3e424945	0.18973263
154	0x3cec901f	0.028877316
155	0x3ab6b35c	0.0013938951
156	0xbd227778	-0.039664716
157	0x088b2d94	8.376474e-34
158	0xbd5bcba7	-0.053661015
159	0xbc571af4	-0.013128985
160	0x8907b420	-1.6334728e-33
161	0x3e516342	0.2044802
162	0xbc62b8f7	-0.013838044
163	0xbd9870c0	-0.0744338
164	0x3c104263	0.00880489
165	0x88a37c7c	-9.839472e-34
166	0xbd563c99	-0.052303884
167	0xbd72f080	-0.05931139
168	0x88bc656c	-1.1338683e-33
169	0x3e419f7e	0.18908498
170	0x3dc20f4b	0.09475573
171	0x3d5a07be	0.05323004
172	0xbd909118	-0.070589244
173	0x076afd1d	1.7678587e-34
174	0xbd60fc6d	-0.054928232
175	0xbb9251c2	-0.0044653127
176	0x88c94fdb	-1.2116021e-33
177	0x3e41d11c	0.18927425
178	0x3ddd7fbe	0.108153805
179	0xbcc60966	-0.024174403
180	0x3d2d5e44	0.042326227
181	0x08964f36	9.046419e-34
182	0xbd3f18c3	-0.046654474
183	0xbd613280	-0.0549798
184	0x88cc7b87	-1.23068445e-33
185	0x3e40afaa	0.1881701
186	0xbbd19507	-0.0063959393
187	0xbdc96737	-0.0983414
188	0x3ddfb5b3	0.10923328
189	0x8895e0e9	-9.020487e-34
190	0xbd049baa	-0.032375015
191	0xbc2874b2	-0.010281729
192	0x88c38dc9	-1.1769469e-33
193	0x3e808d19	0.2510765
194	0x3db6b98b	0.08922108
195	0x3dc4992d	0.095995285
196	0xbc12747d	-0.008938906
197	0x883a01b9	-5.5974364e-34
198	0xbd844da8	-0.06460124
199	0xbdc3c398	-0.09558791
200	0x88c299b0	-1.1712082e-33
201	0x3e5ce18c	0.21570414
202	0x3d84e30b	0.064886175
203	0xba94a660	-0.0011341088
204	0x3db8a412	0.09015669
205	0x883bb072	-5.6480676e-34
206	0xbd680827	-0.0566484
207	0xbd03ae39	-0.032148574
208	0x88ce8944	-1.2430445e-33
209	0x3e5d742c	0.21626347
210	0xba9564e1	-0.0011397862
211	0xbc90f673	-0.017695641
212	0x3dd6e5f0	0.10493076
213	0x8887143f	-8.129777e-34
214	0xbd310ffc	-0.043228135
215	0x3ccacd76	0.024756175
216	0x88ba2644	-1.1203464e-33
217	0x3cf01e89	0.029311435
218	0xbd4090c9	-0.047013078
219	0x3d319a87	0.04336026
220	0xbdff2ef1	-0.12460125
221	0x0881f761	7.822064e-34
222	0x3c81c2d9	0.01583998
223	0x3d68e294	0.056856707
224	0x891bd0ae	-1.8755567e-33
225	0x3d360c32	0.044445224
226	0x3d3f8234	0.04675503
227	0x3c75f890	0.015012875
228	0xbdd24ed8	-0.102689445
229	0x087f0100	7.6737447e-34
230	0x3c43b15d	0.011944142
231	0xbbb0e1bb	-0.005398003
232	0x081cda16	4.72009e-34
233	0x3c8fcbeb	0.01755329
234	0x3be03683	0.006842436
235	0xbc344478	-0.011002652
236	0xbcf4c1ff	-0.02987766
237	0x08eafe19	1.4143101e-33
238	0xbcc1d2d9	-0.02366011
239	0x3cc380c7	0.023865117
240	0x88cdb625	-1.2380811e-33
241	0x3d64d22f	0.05586451
242	0x3d5cf15f	0.053941127
243	0x3e58d242	0.21173957
244	0xbe1de59b	-0.15419619
245	0x08871dad	8.131994e-34
246	0xb8946f8f	-7.077969e-05
247	0xbe14010c	-0.14453524
248	0x89050881	-1.6013291e-33
249	0x3cf1ba24	0.029507704
250	0xbce317d3	-0.027721321
251	0xbe64c030	-0.22338939
252	0x3da04f3a	0.07827611
253	0x085e3d99	6.6878103e-34
254	0xbc31db22	-0.010855468
255	0x3d27730e	0.04088121

arith.constant5 f4 [16]
0	0x00000000	0.0
1	0x00000000	0.0
2	0x00000000	0.0
3	0x00000000	0.0
4	0x00000000	0.0
5	0x00000000	0.0
6	0x00000000	0.0
7	0x00000000	0.0
8	0x00000000	0.0
9	0x00000000	0.0
10	0x00000000	0.0
11	0x00000000	0.0
12	0x00000000	0.0
13	0x00000000	0.0
14	0x00000000	0.0
15	0x00000000	0.0

arith.constant6 f4 [16, 1, 1, 8]
0	0x3d7e237a	0.06204555
1	0xbe0bb317	-0.13642536
2	0xbdc0f361	-0.09421421
3	0x3d203ea3	0.039122235
4	0xbd6164e1	-0.055027846
5	0xbd07f33f	-0.033190962
6	0xbc8e3933	-0.01736126
7	0x3e880953	0.26569614
8	0xbe2e9ff8	-0.1705321
9	0x3f0de11e	0.55421627
10	0xbeb4c0f9	-0.35303476
11	0xbdf64bf0	-0.12026203
12	0x3e486f6e	0.19573757
13	0x3dc30a43	0.09523442
14	0x3ee2f12f	0.44324633
15	0xbeffc572	-0.49955326
16	0x3db7a805	0.08967594
17	0xbf1becb5	-0.6090806
18	0xbf4a1c67	-0.7894959
19	0xbd25f96b	-0.040521067
20	0xbe3ff0b9	-0.18744172
21	0xbec9d5ae	-0.39420837
22	0x3df13d01	0.11779214
23	0x3f6b11e2	0.9182416
24	0x3e9b2c98	0.3030746
25	0x3e8919ef	0.26777598
26	0x3ea7c630	0.32768393
27	0xbea3e58b	-0.32011065
28	0x3e592e14	0.21208984
29	0xbe9fef91	-0.31237462
30	0x3fb2cc02	1.3968508
31	0xbe93914e	-0.28821796
32	0x3deee749	0.11665208
33	0x3e1df57b	0.15425675
34	0x3eb5f084	0.3553506
35	0xbd70f9b9	-0.058831904
36	0x3ee1906a	0.44055492
37	0xbe017254	-0.12641269
38	0xbe2108fb	-0.15726082
39	0xbe7b3958	-0.24533594
40	0xbd3ae656	-0.04562982
41	0xbd982b07	-0.07430082
42	0xbefd69d8	-0.49494815
43	0x3e16e122	0.14734319
44	0xbed46eb6	-0.41490716
45	0x3e10df52	0.1414769
46	0x3e3169a9	0.17325462
47	0x3da0d7fc	0.07853696
48	0xbf01dcd1	-0.50727564
49	0xbdaf135c	-0.085486144
50	0xbf0f726a	-0.56033957
51	0x3cace3f2	0.021104787
52	0x3e70c21a	0.23511544
53	0x3e28cafe	0.16483685
54	0xbe633b4b	-0.22190587
55	0xbe8951ed	-0.26820317
56	0x3e69cba3	0.22831587
57	0x3e3b4174	0.18286687
58	0x3f03b955	0.5145467
59	0x3dcb9665	0.09940795
60	0x3eee9d52	0.466044
61	0xbe16a780	-0.14712334
62	0xbc8beaa7	-0.017079664
63	0x3e25705f	0.16156147
64	0x3cfd79a0	0.030941784
65	0x3ed89501	0.4230118
66	0x3e949b88	0.2902491
67	0x3c1bbf24	0.009506021
68	0x3f2e2e85	0.68039733
69	0x3e8f7581	0.28019336
70	0x3df7c4b2	0.120980635
71	0xbe56a418	-0.20961034
72	0x3e7e5749	0.24837984
73	0xbf460bd2	-0.77361786
74	0xbf1143d2	-0.5674411
75	0xbe137efa	-0.14403906
76	0xbf9ddc78	-1.2332907
77	0x3e93d95a	0.28876764
78	0x3e107801	0.14108278
79	0xbf00ff11	-0.503892
80	0xbbfef82f	-0.0077810506
81	0xbedfc3ad	-0.43703976
82	0x3f97e42b	1.1866506
83	0xbda495a3	-0.080363534
84	0xbf186858	-0.59534216
85	0x3ef790be	0.48352617
86	0x3d20e89a	0.039284326
87	0x3ee87deb	0.45408568
88	0xbeb58efc	-0.3546065
89	0x3ec79cea	0.38986903
90	0xbea0f77e	-0.31438822
91	0x3e219d9c	0.1578278
92	0xbe9c7ad6	-0.30562466
93	0xbedca82f	-0.43097064
94	0x3eaed18b	0.34144244
95	0xbf11b084	-0.56909966
96	0x3edccd0c	0.43125188
97	0xbf063d4d	-0.5243729
98	0x3f248464	0.6426451
99	0x3e61c95d	0.2204947
100	0xbd9ee73c	-0.07758948
101	0xbf05f826	-0.5233177
102	0xbe1a2e88	-0.15056813
103	0x3ee247bc	0.44195354
104	0x3e93d711	0.2887502
105	0x3eec3b5e	0.46139044
106	0x3d719651	0.058981244
107	0x3e235b9b	0.15952913
108	0xbd1bb058	-0.03800997
109	0x3eba1323	0.36342725
110	0x3c718f64	0.01474366
111	0x3d9523ad	0.07282195
112	0xbe438044	-0.19091898
113	0x3f508a13	0.81460685
114	0xbf0115c0	-0.5042381
115	0x3c8f4c04	0.017492302
116	0xbe14bcf4	-0.14525205
117	0x3ee6fe3e	0.45115846
118	0x3f265489	0.6497274
119	0xbe9c0f4f	-0.3048043
120	0x3dcb6bff	0.09932708
121	0xbc5b5bab	-0.013388555
122	0x3f2c46d7	0.67295593
123	0x3cd28855	0.025699774
124	0x3dd39653	0.103314064
125	0xbd8d0f7b	-0.06887718
126	0xbee8d693	-0.45476207
127	0x3ead82c3	0.33888826

arith.constant7 f4 [1, 3, 3, 8]
0	0xbef26f07	-0.47350332
1	0x3ea9c6bf	0.33159444
2	0x3d7c45db	0.061590057
3	0x3d72ee39	0.059309218
4	0xbeceba29	-0.40376404
5	0xbe7861df	-0.24256085
6	0x3ec36924	0.38166153
7	0xbf11620e	-0.56790245
8	0xbef34470	-0.4751315
9	0x3e8d27f2	0.27569538
10	0x3ea96cc8	0.33090806
11	0xbdfb041b	-0.122566424
12	0xbe80d692	-0.25163704
13	0xbebd9467	-0.37027285
14	0x3f10e330	0.5659666
15	0x3d7636fa	0.060111023
16	0x3c1649e3	0.009172889
17	0x3d719798	0.05898246
18	0xbf02ef44	-0.5114634
19	0x3dd1e578	0.10248846
20	0xbe7cc880	-0.2468586
21	0xbd077c43	-0.03307749
22	0x3db8ceab	0.09023794
23	0x3ed653b1	0.41860726
24	0x3f1c44f0	0.6104269
25	0x3e509ec6	0.20373067
26	0x3f0968bf	0.53675455
27	0x3eef9053	0.46789798
28	0x3f3138e6	0.69227445
29	0xbe908bbb	-0.28231606
30	0x3b9e7220	0.004835382
31	0xbe948f32	-0.290155
32	0x3ec383e4	0.38186562
33	0xbeaabef2	-0.33348805
34	0xbc9a3280	-0.018822908
35	0xbf811bcd	-1.0086609
36	0x3f24d02c	0.64380145
37	0x3da7246d	0.081612445
38	0xbea8a73b	-0.32940087
39	0xbeaeeab1	-0.3416343
40	0xbcaaf3ac	-0.020868145
41	0xbead6757	-0.33867905
42	0xbea303bb	-0.31838784
43	0x3ee1080c	0.43951452
44	0xbe7d3c2d	-0.24729986
45	0x3e20cb0f	0.1570246
46	0x3e35a1fd	0.17737575
47	0x3ede44b8	0.43411803
48	0xbb83aaea	-0.0040181773
49	0xbec65194	-0.38734114
50	0xbda300f0	-0.07959163
51	0x3d623455	0.05522569
52	0xbe9ee8c1	-0.31036952
53	0xbf40fd60	-0.7538662
54	0xbef47bc7	-0.47750685
55	0x3e107b05	0.14109428
56	0x3e288b25	0.1645933
57	0xbe4e743a	-0.20161524
58	0x3e2b2b68	0.16715777
59	0xbecb4560	-0.39701366
60	0x3d8fc071	0.07019127
61	0xbdfa36a6	-0.122174546
62	0xbef981e5	-0.48731914
63	0xbd874723	-0.06605365
64	0xbeb8384c	-0.3598045
65	0x3e2a7aec	0.16648453
66	0xbdef8915	-0.11696068
67	0x3eab45cf	0.33451697
68	0x3e205212	0.15656307
69	0x3ebe3051	0.37146237
70	0x3d822493	0.06354632
71	0x3db04c40	0.086082935

arith.constant8 f4 [16, 1, 1, 8]
0	0x3f13319f	0.5749759
1	0x3ed8b650	0.42326593
2	0x3d5d6e7f	0.054060455
3	0x3f73d2aa	0.9524332
4	0x3cc7b8e0	0.024380147
5	0x3f546a34	0.82974553
6	0x3f9b914b	1.2153715
7	0x3e19c587	0.15016757
8	0xbf8ba705	-1.0910345
9	0xbef8a3cd	-0.4856247
10	0x3e7cdbb0	0.24693179
11	0xbe821856	-0.25409192
12	0x3fd4b2f0	1.6617107
13	0x3ef4fc73	0.47848853
14	0x3e8c16e4	0.27361214
15	0x3dd8e93b	0.1059136
16	0x3f0740aa	0.52833045
17	0x3e0e722c	0.1391074
18	0x3fad80b2	1.35549
19	0xbf1e634b	-0.6187026
20	0x3ebcb4a0	0.36856556
21	0xbe23fea0	-0.160151
22	0xbdffff92	-0.12499918
23	0xbec737f5	-0.3890988
24	0xbd01b13c	-0.031663164
25	0x3f54c962	0.83119786
26	0x3f2309a3	0.6368658
27	0xbe155dbb	-0.14586537
28	0xbe9ad1f4	-0.30238307
29	0x3f4338cc	0.7625854
30	0xbf8e7b16	-1.1131313
31	0x3f62682f	0.8844022
32	0xbe80b84c	-0.25140607
33	0xbd17dc46	-0.037075303
34	0x3ebd44b0	0.36966467
35	0x3ed9e806	0.42559832
36	0x3f45fc8b	0.77338475
37	0x3efd34d3	0.49454364
38	0xbf92b6ff	-1.1462096
39	0xbf56a77b	-0.83849305
40	0xbe3202cb	-0.17383878
41	0x3e25cf89	0.1619245
42	0x3e566668	0.20937502
43	0x3fe3b42c	1.7789359
44	0xbea48eb4	-0.32140124
45	0x3ebaee9e	0.36510175
46	0xbea091c4	-0.3136121
47	0xbf5354de	-0.8255137
48	0x3e25ee0b	0.16204087
49	0xbe58294d	-0.21109505
50	0xbe6317b0	-0.22177005
51	0x3f80c751	1.0060827
52	0xbed2beae	-0.41161102
53	0x3f928034	1.1445374
54	0xbf859522	-1.0436137
55	0xbecbabe0	-0.39779568
56	0xbd85f4de	-0.06540845
57	0xbe78fa09	-0.24314131
58	0xbe140f0b	-0.14458863
59	0x3f94008f	1.156267
60	0xbb83a7c0	-0.0040178
61	0x3e859424	0.26089585
62	0x3f8727b6	1.0558994
63	0x3e39abf8	0.18132007
64	0x3f87352c	1.0563102
65	0x3d6c9e69	0.05776826
66	0x3f4093fa	0.75225794
67	0x3f170831	0.58996874
68	0x3ea470c4	0.32117283
69	0xbf3cd0d5	-0.7375615
70	0x3f112aa1	0.5670567
71	0xbe25cdcb	-0.16191785
72	0x3ee287ea	0.4424432
73	0x3e8f9adf	0.28047845
74	0x3ea3cce6	0.31992263
75	0xbf1423b9	-0.5786701
76	0x3e2a4ebb	0.16631596
77	0x3f0a8012	0.5410167
78	0x3e11930a	0.14216247
79	0x3fdea3b1	1.7393705
80	0xbf2b2e59	-0.66867596
81	0xbe4b06e3	-0.19826846
82	0xbf543865	-0.8289855
83	0x3e8c8b2a	0.27449924
84	0xbf9d2d87	-1.2279519
85	0x3f27c643	0.655369
86	0xbf3ce49b	-0.73786324
87	0x3dbf8b99	0.09352798
88	0x3fac750a	1.3473217
89	0x3e826d7a	0.2547415
90	0x3ea46f0c	0.32115972
91	0x3e573a64	0.21018368
92	0xbf5721f4	-0.84036183
93	0xbe2d8607	-0.16945659
94	0xbd458f78	-0.048232526
95	0x3e640ea5	0.22271211
96	0x3dbfc4b6	0.093636915
97	0x3d87e4c9	0.06635434
98	0x3df598af	0.11992013
99	0xbdb6b1ee	-0.08920656
100	0xbfbb0f45	-1.4614035
101	0x3f4236db	0.7586495
102	0x3dc10723	0.09425189
103	0x3ef885c9	0.4853957
104	0x3e710c11	0.23539759
105	0xbf195c60	-0.5990658
106	0xbefbfb7e	-0.4921531
107	0x3f1a293d	0.60219175
108	0x3e587424	0.21138054
109	0x3fc04ad8	1.502284
110	0x3f872317	1.0557584
111	0xbea671ac	-0.325086
112	0xbf05635a	-0.52104723
113	0x3e80199c	0.25019538
114	0x3e69158f	0.2276213
115	0x3f926169	1.1435977
116	0xbf507453	-0.81427497
117	0xbc7b5c60	-0.015341848
118	0xbe93219a	-0.28736573
119	0xbe88508b	-0.2662395
120	0x3f0ed839	0.5579868
121	0x3f96ffdb	1.1796831
122	0xbc102c6a	-0.008799652
123	0xbe97af62	-0.29625994
124	0xbf8138b4	-1.009543
125	0xbe00a083	-0.1256123
126	0x3b751264	0.0037394995
127	0x3df13a9c	0.11778757

arith.constant9 f4 [1, 3, 3, 16]
0	0x3ea6a0ee	0.32544655
1	0x3e36270b	0.17788331
2	0xbdddf2b5	-0.10837308
3	0x3dfc6131	0.12323225
4	0x3ea25b33	0.31710204
5	0x3d9b1d45	0.07573942
6	0xbe0aca9a	-0.13553849
7	0x3e8a89be	0.27058214
8	0xbee41b8a	-0.4455226
9	0x3f1b0892	0.6055995
10	0xbce2f56c	-0.027704917
11	0xbeb5eba8	-0.35531354
12	0xbd9564f1	-0.07294644
13	0x3dbb7760	0.09153628
14	0x3e76e6b9	0.24111451
15	0x3ce174e3	0.027521556
16	0xbd08083e	-0.033210985
17	0x3ee44faa	0.4459203
18	0xbe496019	-0.19665565
19	0x3f305220	0.6887531
20	0x3d9b3513	0.075784825
21	0x3e92ae46	0.28648585
22	0x3ebdf662	0.37102038
23	0x3e38fd5e	0.18065402
24	0xbec3da53	-0.38252506
25	0x3ea1ad7f	0.3157768
26	0x3e99b313	0.30019435
27	0x3da720d2	0.08160557
28	0xbe036d3b	-0.12834637
29	0xbef99540	-0.4874668
30	0x3e3f920f	0.1870806
31	0xbe7bd688	-0.24593556
32	0xbe9893ab	-0.29800162
33	0x3ce23f12	0.027617965
34	0x3e28ec4b	0.16496389
35	0x3e08701d	0.13324018
36	0xbf0adab3	-0.5423996
37	0x3dd07c07	0.10179906
38	0x3f29805a	0.66211474
39	0x3e83c552	0.2573648
40	0xbdac16e8	-0.084028065
41	0x3d1229ba	0.035684325
42	0x3e73bffb	0.23803703
43	0xbe0694cb	-0.13142698
44	0xbebe6690	-0.37187624
45	0xbe81b833	-0.25335845
46	0xbf0a5ccd	-0.5404785
47	0xbf1e721f	-0.61892885
48	0x3e93624e	0.28785938
49	0x3f456455	0.7710622
50	0x3e964b3b	0.2935427
51	0x3dcc7497	0.09983175
52	0x3e9bea35	0.30452123
53	0x3f0ea8b0	0.55726147
54	0x3eaa167f	0.33220288
55	0xbc378ef3	-0.011203515
56	0xbdba47f2	-0.09095754
57	0x3e4450a4	0.19171387
58	0x3d6c07b5	0.057624537
59	0xbd9f612d	-0.07782207
60	0x3e5c5e83	0.21520428
61	0x3eb5cf76	0.35509843
62	0x3eaa4d22	0.33261973
63	0xbed59ce4	-0.4172126
64	0x3effd2b2	0.49965435
65	0x3eb7d0d9	0.35901526
66	0x3e67ecdd	0.2264895
67	0xbdef6788	-0.11689669
68	0xbf2d63de	-0.6773051
69	0x3f269991	0.65078074
70	0xbc98b317	-0.018640084
71	0xbea26f4e	-0.31725544
72	0xbe167b00	-0.14695358
73	0x3f1e474e	0.6182755
74	0x3f4d6c60	0.8024349
75	0xbe9abc6a	-0.30221874
76	0xbd381fdf	-0.04495227
77	0xbf0a3d02	-0.5399934
78	0x3d2ab746	0.04167869
79	0xbed8c409	-0.42337063
80	0xbd2a8cdf	-0.04163825
81	0x3e5a282f	0.21304391
82	0x3dd1a278	0.102360666
83	0xbd899382	-0.06717588
84	0xbef3a9e4	-0.47590554
85	0x3ccd77d7	0.025081558
86	0xbeb2e2f4	-0.34938776
87	0xbe93b41a	-0.28848344
88	0xbe564ed9	-0.20928515
89	0x3a997568	0.0011707963
90	0x3e5dd50c	0.21663302
91	0xbee1afb6	-0.4407937
92	0xbf0447fd	-0.51672345
93	0xbf19a4fc	-0.6001737
94	0xbe905169	-0.2818711
95	0xbe4688f4	-0.19388181
96	0x3e786145	0.24255855
97	0x3f04da12	0.5189525
98	0x3f1d2e80	0.6139908
99	0x3da08d79	0.07839484
100	0xbe6c95cd	-0.2310402
101	0x3d63a8c4	0.05558087
102	0x3e3ee245	0.18641002
103	0x3f063949	0.5243116
104	0x3dfbb241	0.122898586
105	0xbead3ddf	-0.33836266
106	0x3ed69232	0.41908413
107	0xbda21220	-0.07913613
108	0xbe8afbbc	-0.27145183
109	0xbe4adfbc	-0.1981191
110	0xbeee0bb8	-0.46493316
111	0xbea29e4c	-0.31761396
112	0x3d9963c1	0.0748973
113	0xbd0ba210	-0.0340901
114	0x3ecfb2f2	0.40566212
115	0xbf324780	-0.6964035
116	0xbe9423b1	-0.2893348
117	0x3f029253	0.51004523
118	0xbeb97f91	-0.36230138
119	0x3dc58b00	0.09645653
120	0xbe1496e2	-0.14510682
121	0x3dd01af1	0.10161389
122	0x3e4780f3	0.19482784
123	0xbec11b5a	-0.3771618
124	0x3ca47163	0.020073598
125	0xbbff0124	-0.0077821184
126	0xbe507352	-0.20356491
127	0x3d497821	0.04918683
128	0x3e8b20ea	0.2717355
129	0xbb99c898	-0.004693102
130	0x3df78f7d	0.12087915
131	0xbe869ad7	-0.26290008
132	0x3db50c6d	0.08840261
133	0x3ee886a2	0.45415217
134	0xbe93d537	-0.28873608
135	0xbe95387e	-0.29144663
136	0xbedda8e5	-0.4329292
137	0x3f1e7fa4	0.61913514
138	0x3e831a41	0.25605968
139	0xbeb6b5e0	-0.35685635
140	0xbe5251c0	-0.20538998
141	0xbe3619a7	-0.17783223
142	0x3b9da91e	0.00481142
143	0x3e6d3233	0.2316368

arith.constant10 f4 [16, 1, 1, 16]
0	0x3ecd1f4c	0.4006294
1	0x3f30f98d	0.69130784
2	0xbe7c1f69	-0.24621357
3	0x3bd9e8ff	0.0066500898
4	0x3ef39d32	0.47580868
5	0x3e472537	0.1944779
6	0xbda546b8	-0.08070129
7	0xbe398a0e	-0.1811907
8	0x3e0854df	0.13313626
9	0xbedf225e	-0.43580908
10	0xbea91880	-0.33026505
11	0xbefe9eb4	-0.49730456
12	0xbd289c8b	-0.041164916
13	0xbe8f6305	-0.28005233
14	0xbe5d49c6	-0.21610174
15	0x3de1dd3f	0.110285275
16	0x3f088f73	0.53343886
17	0x3ce08332	0.027406309
18	0xbe3e009e	-0.18554923
19	0xbe9fb93e	-0.31196016
20	0xbe15b7af	-0.14620851
21	0xbe3d75e1	-0.18501998
22	0x3d5348a7	0.05158296
23	0xbe829f2f	-0.25512072
24	0xbf0bc4d9	-0.5459724
25	0x3e7f44a1	0.24928524
26	0xbc97e141	-0.018540027
27	0xbe9a723c	-0.3016528
28	0x3e8b5147	0.27210447
29	0xbe06687e	-0.13125798
30	0x3cabc980	0.020970106
31	0xbe5efd3a	-0.21776286
32	0x3d597f62	0.053099997
33	0x3e027de2	0.12743333
34	0x3dba9d8f	0.09112083
35	0x3ea9528f	0.330708
36	0xbdec0a22	-0.1152537
37	0xbe17b4b3	-0.14815025
38	0xbe5e2696	-0.21694407
39	0xbe3ba592	-0.18324879
40	0x3ddd334d	0.108008005
41	0xbe09bd5a	-0.13451138
42	0x3d0f5db3	0.035001468
43	0x3d9634a5	0.0733426
44	0x3dcf7fbe	0.10131787
45	0x3db0bd20	0.08629823
46	0x3d88a7ac	0.06672606
47	0xbdc7ff52	-0.09765495
48	0xbebbf446	-0.36709803
49	0x3dab027a	0.08350082
50	0x3f3a847b	0.728584
51	0xbd9f032b	-0.07764276
52	0x3da8f3c4	0.082496196
53	0x3f21275c	0.6295068
54	0x3e6e471e	0.23269317
55	0xbf036854	-0.5133107
56	0xbe7493bd	-0.23884483
57	0x3dd9ba93	0.10631289
58	0xbe3b6f4f	-0.1830418
59	0xbe98f7e5	-0.2987663
60	0x3e9e6f54	0.30944312
61	0x3efa134e	0.48842853
62	0x3e067162	0.1312919
63	0x3e401ccb	0.18760984
64	0x3db99b07	0.09062772
65	0x3e766181	0.24060632
66	0xbe294077	-0.16528498
67	0xbf402c94	-0.7506802
68	0x3ee4e0df	0.44702813
69	0xbe4ddf80	-0.2010479
70	0xbe686952	-0.22696427
71	0x3e32d16f	0.17462705
72	0x3e6cd2c8	0.23127282
73	0xbe8e9df9	-0.278549
74	0xbe93f500	-0.28897858
75	0xbe586d9d	-0.21135564
76	0x3d2c3e96	0.042051874
77	0xbdd1abd0	-0.10237849
78	0xbd555261	-0.052080516
79	0xbd90d4c5	-0.070718326
80	0xbd9e58b2	-0.07731761
81	0xbeeafae4	-0.4589454
82	0x3d19a5a2	0.037511475
83	0x3eba21ee	0.3635401
84	0xbf163027	-0.58667225
85	0x3dd44f7e	0.103667244
86	0x3ea15f94	0.31518233
87	0x3cee3c8a	0.029081602
88	0x3c663c2d	0.014052433
89	0x3e4b00df	0.19824551
90	0x3e78df96	0.24304041
91	0x3c0080bc	0.007843193
92	0x3e67bd7a	0.22630873
93	0x3e52e77e	0.2059612
94	0x3d959cc2	0.0730529
95	0xbe01a6d7	-0.126613
96	0xbf00747f	-0.5017776
97	0x3e4d4f34	0.20049745
98	0xbe103063	-0.14080958
99	0xbe953f97	-0.29150078
100	0x3f12bde4	0.57321
101	0x3ebcc5de	0.3686971
102	0x3e055367	0.13020097
103	0xbdc2e27d	-0.095158555
104	0x3e3bf41c	0.18354839
105	0x3f7d7ed4	0.9902165
106	0xbe2f2c2b	-0.17106692
107	0x3d5c9d71	0.053861085
108	0xbcb1da44	-0.021710522
109	0x3bdb1045	0.006685289
110	0x3e4dcbb5	0.2009724
111	0xbe39c2c5	-0.18140705
112	0xbeb0dc11	-0.34542897
113	0x3dd6c0b3	0.10485973
114	0x3ee61b2a	0.449426
115	0x3e57ce10	0.210747
116	0x3d6bb459	0.05754504
117	0x3e94d24a	0.29066688
118	0xbea21680	-0.3165779
119	0x3ba500fc	0.0050355177
120	0xbda670c0	-0.08126974
121	0xbf03b6cd	-0.51450807
122	0x3f361e76	0.7114023
123	0xbe51e20e	-0.2049639
124	0xbe4b025c	-0.19825119
125	0x3f3bcf4e	0.73363197
126	0x3e247a83	0.1606236
127	0xb9458925	-0.00018838474
128	0x3d8547ae	0.065078124
129	0x3eea1987	0.457226
130	0x3e9f208e	0.31079525
131	0xbe39c72a	-0.18142381
132	0xbd7da81c	-0.0619279
133	0x3ea10b9e	0.31454176
134	0x3ded2b75	0.115805544
135	0xbcf40203	-0.029786116
136	0xbd0df5d2	-0.03465826
137	0x3ef3594e	0.47529072
138	0x3dcf34c0	0.10117483
139	0xbef0bc70	-0.47018766
140	0xbe888c27	-0.26669428
141	0x3d287b20	0.041133046
142	0x3f52ebcd	0.82391053
143	0x3eefd48b	0.46841845
144	0xbe4341cd	-0.1906807
145	0x3d03829f	0.03210699
146	0xbe20c2a0	-0.15699244
147	0x3ccefdba	0.02526747
148	0xbcf2925c	-0.029610805
149	0xbd07fa95	-0.033197958
150	0x3e9933c9	0.2992232
151	0xbdd798ad	-0.105271675
152	0xbd2e516b	-0.042558115
153	0x3d25ad7b	0.040448647
154	0x3e4a8203	0.19776158
155	0x3e3cd552	0.1844075
156	0xbe891155	-0.26771036
157	0xbd3ae2c3	-0.045626413
158	0xbe612933	-0.21988373
159	0xbe4e0a8b	-0.2012121
160	0xbe46c3b5	-0.19410594
161	0x3de2c7e2	0.11073281
162	0x3e68c7ea	0.22732511
163	0x3e470bf9	0.19438161
164	0x3e6b163f	0.22957705
165	0x3df98dc9	0.121852465
166	0x3e886914	0.26642668
167	0x3ed33626	0.4125225
168	0xbf05c02a	-0.52246344
169	0xbdbe9ba9	-0.093070336
170	0xbc50c2ca	-0.012741754
171	0xbdc014d6	-0.09378974
172	0x3e986504	0.2976457
173	0xbe1af637	-0.15132986
174	0x3e89d865	0.26922908
175	0xbe19ccc7	-0.15019523
176	0xbe11355b	-0.1418051
177	0xbe6459f5	-0.22299941
178	0xbcc9711a	-0.024590064
179	0x3c933c87	0.017973198
180	0x3f5ba625	0.8580039
181	0x3e8d75cf	0.27628943
182	0x3ed6e60d	0.4197239
183	0x3ed78c83	0.4209939
184	0x3e05408e	0.13012907
185	0x3c564156	0.013077101
186	0xbbd14348	-0.0063861944
187	0x3ee5da3f	0.4489307
188	0x3ea3d8bb	0.3200129
189	0xbf3c8801	-0.73645025
190	0xbc7c25ab	-0.01538984
191	0x3ecc98dd	0.39960375
192	0x3e85502b	0.26037726
193	0x3e96a626	0.29423636
194	0x3e22d0d6	0.15899977
195	0x3ec0d191	0.37659886
196	0x3e865085	0.26233307
197	0x3f00c66e	0.5030278
198	0xbcd54ca5	-0.026037524
199	0x3e33a53b	0.17543499
200	0x3eaba3a7	0.33523294
201	0xbf02dc4e	-0.5111741
202	0x3effbc8a	0.4994853
203	0xbea18ffb	-0.3155516
204	0xbf0686ec	-0.52549624
205	0x3f1dd3e8	0.6165147
206	0x3e33e025	0.17565973
207	0x3e0150c3	0.12628464
208	0x3d91553f	0.070963375
209	0xbf446e64	-0.7673094
210	0x3e371d35	0.17882235
211	0x3ec75dfd	0.38938895
212	0x3e14f2dc	0.14545768
213	0x3f0374bc	0.5135
214	0xbeda69fd	-0.42658988
215	0xbe8f4170	-0.27979612
216	0x3e823756	0.25432843
217	0x3eaf3505	0.34220138
218	0xbb3af8ef	-0.0028529724
219	0x3efa33a3	0.4886752
220	0x3ea115a9	0.31461838
221	0xbe923c7e	-0.28561777
222	0xbea0435e	-0.31301397
223	0x3ee98b8b	0.45614275
224	0x3e287bb8	0.16453445
225	0x3f02ce4d	0.5109604
226	0xbea8100f	-0.32824752
227	0x3e05d3be	0.13069054
228	0xbc82be59	-0.015959905
229	0xbeb5e5ba	-0.3552683
230	0x3f28d255	0.6594594
231	0xbf0a2c29	-0.53973633
232	0xbd2827e1	-0.041053656
233	0xbe9eef6c	-0.3104204
234	0xbe941efe	-0.28929895
235	0xbe84aead	-0.25914517
236	0xbe5e1a75	-0.2168978
237	0x3e6cb5e1	0.23116256
238	0xbd27919e	-0.040910356
239	0xbf14c990	-0.5812006
240	0x3dd212c9	0.10257489
241	0x3e3c66aa	0.18398538
242	0x3e5b9165	0.21442182
243	0xbe4da216	-0.20081362
244	0x3eb49960	0.35273266
245	0x3e4c070d	0.19924565
246	0xbe9f3562	-0.31095415
247	0xbd993194	-0.074801594
248	0x3ee9d1e2	0.4566794
249	0x3c0ea2c6	0.0087058
250	0xbf13112e	-0.5744809
251	0xbf038ce0	-0.51386833
252	0xbd76c623	-0.06024755
253	0x3f0b6298	0.5444732
254	0xbec1b3d2	-0.37832505
255	0xbf3dff15	-0.7421735

arith.constant11 f4 [32]
0	0x00000000	0.0
1	0x00000000	0.0
2	0x00000000	0.0
3	0x00000000	0.0
4	0x00000000	0.0
5	0x00000000	0.0
6	0x00000000	0.0
7	0x00000000	0.0
8	0x00000000	0.0
9	0x00000000	0.0
10	0x00000000	0.0
11	0x00000000	0.0
12	0x00000000	0.0
13	0x00000000	0.0
14	0x00000000	0.0
15	0x00000000	0.0
16	0x00000000	0.0
17	0x00000000	0.0
18	0x00000000	0.0
19	0x00000000	0.0
20	0x00000000	0.0
21	0x00000000	0.0
22	0x00000000	0.0
23	0x00000000	0.0
24	0x00000000	0.0
25	0x00000000	0.0
26	0x00000000	0.0
27	0x00000000	0.0
28	0x00000000	0.0
29	0x00000000	0.0
30	0x00000000	0.0
31	0x00000000	0.0

arith.constant12 f4 [32, 1, 1, 16]
0	0x3cced7dc	0.025249414
1	0xbde2d90b	-0.11076554
2	0xbccc712e	-0.024956312
3	0xbccc1df4	-0.024916627
4	0x3d44afd5	0.04801925
5	0xbc4145f8	-0.011796467
6	0xbd96be2f	-0.073604934
7	0xbe0aa86a	-0.13540807
8	0xbd0099b2	-0.031396575
9	0x3d227c7b	0.039669495
10	0xbe02dfea	-0.12780729
11	0xbb201ffc	-0.0024433127
12	0xbcc8b353	-0.024499571
13	0xbd140cae	-0.036144905
14	0x3b65f8b2	0.003509086
15	0x3bb442e4	0.005501138
16	0x3ba865e2	0.0051390985
17	0x39fbbefb	0.00048016742
18	0xbbd4a07c	-0.006488858
19	0xbc0ade77	-0.008475891
20	0x3b9c0bbc	0.004762141
21	0xbb058901	-0.002037585
22	0x3cca635f	0.024705587
23	0x3ce166b6	0.027514797
24	0x3c7b3eb1	0.015334771
25	0x3c04e543	0.008111301
26	0xbd4e0dde	-0.050306194
27	0x39e147e2	0.000429689
28	0x3d1330a3	0.035935055
29	0x3ca06d1c	0.019583277
30	0xbc622cad	-0.013804597
31	0x3bd5804c	0.0065155383
32	0xbdbca37b	-0.09210869
33	0x3d81e5bb	0.06342646
34	0x3daa2946	0.083086535
35	0x3da0305c	0.07821724
36	0xbd77007a	-0.06030319
37	0x3e11bd1c	0.14232296
38	0x3ddedfc4	0.10882524
39	0x3b367fd0	0.0027847178
40	0xbcf61510	-0.03003934
41	0xbb3da001	-0.002893448
42	0xbe45918f	-0.19293807
43	0x3e0b5449	0.13606371
44	0xbe4dc82b	-0.2009589
45	0x3e3c622f	0.18396829
46	0x3bb695fe	0.0055720797
47	0xbd260860	-0.04053533
48	0xbd6b5cc4	-0.057461515
49	0xbd1098f3	-0.035302114
50	0x3ac3d328	0.0014940249
51	0xbcca0568	-0.024660781
52	0x3bccc30e	0.0062488383
53	0x3ccf7c2d	0.025327766
54	0x3db33ce5	0.08751849
55	0xbc92ef82	-0.017936472
56	0x3ca17595	0.019709388
57	0x3d904f27	0.07046347
58	0xbded59d4	-0.11589399
59	0x3dc5cff5	0.09658805
60	0x3d85ba51	0.06529678
61	0x3dc3310a	0.09530838
62	0xbdc6b9c4	-0.09703401
63	0x3d059285	0.032610435
64	0x3e2ac6fe	0.16677472
65	0x3bf00688	0.0073249973
66	0x3dbd85e7	0.092540555
67	0xbdc8bbad	-0.09801421
68	0x3e21548e	0.15754911
69	0x3cb41cff	0.021986483
70	0xbdd4cb06	-0.10390286
71	0x3d063ebf	0.032774683
72	0x3cc93ddc	0.02456563
73	0x3d0d9a47	0.03457096
74	0x3a9ef01a	0.0012125999
75	0xbd6daf1d	-0.05802833
76	0xbd8d348a	-0.06894787
77	0xbdfa73ae	-0.122290954
78	0xbc8c2085	-0.01710535
79	0x3dd2f5d4	0.10300794
80	0x3c3a1a17	0.011358759
81	0x3e216b54	0.15763599
82	0xbd92f47d	-0.07175539
83	0xbe5407fc	-0.20706171
84	0xbc862c82	-0.016378645
85	0xbe1a7403	-0.15083317
86	0xbd8f7082	-0.07003881
87	0xba458643	-0.000753496
88	0xbd04dcd0	-0.032437146
89	0x3db4703a	0.08810468
90	0xbd77fca1	-0.06054366
91	0xbcfbd7f2	-0.03074262
92	0xbbd97a4e	-0.0066368943
93	0xbdb312af	-0.08743798
94	0x3e035c6d	0.12828226
95	0xbe3c4e09	-0.18389143
96	0x3d8ee07a	0.06976409
97	0x3d55d4f0	0.052205026
98	0x3dbc2459	0.0918662
99	0x3c75cafe	0.01500201
100	0xbd2eb6d0	-0.042654812
101	0x3c32559e	0.010884671
102	0xbd072301	-0.032992367
103	0x3d70701c	0.058700666
104	0x3d55550d	0.052083064
105	0xbd9d8915	-0.07692162
106	0xbbf28514	-0.007401118
107	0xbd460641	-0.048345808
108	0xbc5d602b	-0.013511698
109	0xbdc0de09	-0.0941735
110	0x3db72ad3	0.08943715
111	0x3c9b753c	0.0189768
112	0x3ca2abe4	0.019857354
113	0xbe3a392c	-0.18185872
114	0xbc76e473	-0.015069115
115	0x3d30b064	0.04313697
116	0x3d974ba2	0.07387473
117	0x3da60027	0.08105498
118	0xbd8e3f8f	-0.069457166
119	0xbe474ec3	-0.19463639
120	0x3d3adab6	0.045618735
121	0xbd3e62bf	-0.04648089
122	0xbc9a5058	-0.018837139
123	0x3e099ff3	0.13439922
124	0xbe0a5934	-0.13510591
125	0x3d31f0f2	0.043442674
126	0xbdc207a1	-0.09474111
127	0x3dece4df	0.11567091
128	0x3e83eaf1	0.25765184
129	0xbe21af2f	-0.15789483
130	0x3d06ae38	0.03288099
131	0x3db06475	0.08612911
132	0x3de964c3	0.11396172
133	0x3e8a3eac	0.2700094
134	0x3c994692	0.018710408
135	0xbe0b527a	-0.13605681
136	0x3e387ac6	0.18015584
137	0x3d78bcea	0.060727037
138	0x3d95343e	0.07285355
139	0x3de9f8c1	0.11424399
140	0xbc98b58a	-0.018641252
141	0x3cc93442	0.024561051
142	0x3c70db60	0.014700741
143	0x3e41d0d5	0.1892732
144	0xbd92185a	-0.07133551
145	0x3d369f6f	0.04458564
146	0xbbfa0391	-0.0076298197
147	0xbcee1007	-0.029060377
148	0xbdabce4d	-0.08388958
149	0xbd7ea2ff	-0.062167164
150	0xbdceae3f	-0.100918286
151	0xbd549ea6	-0.05190911
152	0xbd7fd10d	-0.062455226
153	0xbd405cb6	-0.046963416
154	0xbd3eac7a	-0.046551205
155	0x3d811826	0.06303434
156	0xbd9a7a4c	-0.075428575
157	0x3d145b8b	0.036220115
158	0x3ca3c0ba	0.01998936
159	0xbdd95472	-0.1061181
160	0x3cf83a23	0.03030116
161	0xbcb6d267	-0.022317125
162	0x3d7ba61e	0.06143772
163	0xbd4bbbfe	-0.04973983
164	0xbd1d5c68	-0.038418204
165	0xba2d30eb	-0.00066067156
166	0xbd7ada2a	-0.061243214
167	0xbd3cca80	-0.046091557
168	0xbd26ef7f	-0.040755745
169	0x3c479e0c	0.012183677
170	0x3cc5444e	0.024080422
171	0xbd65c850	-0.056099236
172	0xbd049275	-0.032366235
173	0xbdbcec02	-0.092247024
174	0xbd92aae4	-0.07161501
175	0xbc9e4878	-0.019321665
176	0xbc8e2f2e	-0.017356481
177	0x3d1217a9	0.035667095
178	0xbd45d0be	-0.048294775
179	0x3d62f91f	0.05541336
180	0xbca06d53	-0.01958338
181	0x3cf287b8	0.029605731
182	0xbcd99508	-0.026560321
183	0xbd0e3021	-0.034713868
184	0x3d8933e9	0.06699354
185	0x3d3471d9	0.044053886
186	0x3c6450f9	0.013935321
187	0x3dc001e0	0.09375358
188	0xbc010de6	-0.007876849
189	0x3ce8420f	0.028351812
190	0xbd40616a	-0.0469679
191	0x3d1ec053	0.038757633
192	0x3cf33a93	0.029691016
193	0x3bb1657e	0.00541371
194	0xbd44ad0c	-0.048016593
195	0xbda464dc	-0.0802705
196	0xbc517a6e	-0.012785537
197	0xbd141782	-0.03615523
198	0x3a901f86	0.0010995723
199	0xbbd928cf	-0.006627179
200	0x3c8a6a45	0.016896376
201	0x3c18fcd1	0.00933762
202	0x3c840e18	0.016120002
203	0xbe07afed	-0.13250704
204	0x3d51727e	0.05113458
205	0xbd8723b7	-0.06598609
206	0x3a816f98	0.0009875176
207	0x3d2ac22f	0.041689094
208	0x3c169c60	0.009192556
209	0x3d457c5e	0.04821431
210	0xbc431669	-0.0119071985
211	0x3e2fe25c	0.17176193
212	0xbd992478	-0.07477659
213	0xbb8d0229	-0.004303236
214	0x3d79bc30	0.060970485
215	0x3d571701	0.052512173
216	0x3d03aeab	0.032149
217	0x3d4ef2ab	0.050524395
218	0x3c296b9a	0.010340596
219	0x3d986336	0.07440798
220	0xbc1282ec	-0.008942347
221	0x3d75a82d	0.059974838
222	0xbc8e18cd	-0.01734581
223	0x3d304593	0.0430351
224	0x3db52da9	0.088465996
225	0xbc7f8592	-0.0155958105
226	0x3da3f22e	0.080051765
227	0xbd432218	-0.047639936
228	0x3daf51c1	0.08560515
229	0xbd62f48d	-0.055409003
230	0x3c3b1554	0.011418659
231	0x3ce432fd	0.027856344
232	0x3db15809	0.086593695
233	0x3c8bb60c	0.01705458
234	0xbd3b6b70	-0.045756757
235	0x3cf5bfdb	0.02999871
236	0x3dbae697	0.09126013
237	0xbd06de37	-0.032926764
238	0xbc53ecab	-0.012934844
239	0x3e117003	0.14202885
240	0x3c64072e	0.013917727
241	0xbdd6f091	-0.10495103
242	0xbb8f84d8	-0.00437985
243	0xbdba1441	-0.090858944
244	0x3d13494b	0.03595857
245	0xbd0bd046	-0.034134172
246	0xbcb32dde	-0.021872457
247	0xbdc994a8	-0.09842807
248	0xbda4c4ce	-0.0804535
249	0x3cf5c04a	0.029998917
250	0xbd267252	-0.040636368
251	0x3d9865e9	0.07441313
252	0xbc6d9cc5	-0.014502709
253	0x3c906bb8	0.01762949
254	0xbcaa9f5f	-0.020827947
255	0xbc99daf0	-0.018781155

arith.constant13 f4 [1, 3, 3, 16]
0	0xbf0f0e1a	-0.5588089
1	0xbf22b2ab	-0.63553876
2	0xbe10dc5a	-0.14146557
3	0xbe9f2152	-0.3108011
4	0xbf0af483	-0.54279345
5	0xbe8b87c7	-0.27252027
6	0xbedcb025	-0.43103138
7	0xbded2a09	-0.11580283
8	0x3e1e9df4	0.15489942
9	0xbe83c279	-0.25734308
10	0x3e7cfc79	0.24705686
11	0x3ddbe4dc	0.10737011
12	0x3ebd101f	0.36926362
13	0xbd4330c4	-0.04765393
14	0x3dcfd2b6	0.10147612
15	0x3e974b1e	0.29549497
16	0xbe5fe505	-0.21864708
17	0xbf10ade1	-0.5651532
18	0xbefe87bd	-0.49712935
19	0xbe99c97d	-0.30036536
20	0xbee137fb	-0.43988022
21	0xbebf9572	-0.37418705
22	0xbe1ac33b	-0.15113537
23	0x3e13ccc2	0.14433578
24	0x3e6a62ba	0.22889224
25	0x3ae7f585	0.0017697072
26	0xbe5871e0	-0.2113719
27	0xbd3e5297	-0.046465483
28	0x3ed6f9ea	0.41987544
29	0xbe148914	-0.14505416
30	0x3e1d82ea	0.15381971
31	0x3f1ed2f2	0.62040627
32	0xbc603ba7	-0.013686097
33	0xbe923dfd	-0.28562918
34	0xbeadb59b	-0.33927616
35	0xbe817c6d	-0.25290242
36	0xbefdfa11	-0.49604848
37	0xbe8c50ef	-0.27405497
38	0xbc90c58a	-0.017672319
39	0xbf130b5f	-0.57439226
40	0xbdfeec1b	-0.12447377
41	0x3f0f995d	0.5609339
42	0x3d7bc829	0.061470184
43	0xbe84f625	-0.25969043
44	0x3eb10879	0.34576777
45	0x3e42cd5f	0.19023655
46	0x3e80751f	0.25089356
47	0x3ea5d197	0.32386467
48	0xbcca1e28	-0.024672583
49	0xbe62404e	-0.22094843
50	0xbec305ef	-0.38090464
51	0xbd64f70d	-0.05589967
52	0xbeafef85	-0.34362426
53	0xbeb4ee9e	-0.353383
54	0xbc5e89a4	-0.013582621
55	0x3e5cfdf4	0.2158125
56	0x3ee7464c	0.4517082
57	0xbf3ec5c8	-0.7452054
58	0xbe122c58	-0.14274728
59	0x3f24f9ca	0.6444365
60	0x3eef4ca8	0.46738172
61	0x3e9cb3b6	0.3060586
62	0x3ee08b47	0.4385626
63	0x3dda3e40	0.106564045
64	0x3eca0143	0.39454088
65	0x3e9b4c40	0.30331612
66	0x3da07545	0.078348674
67	0x3e80454f	0.25052878
68	0xbe84e922	-0.25959116
69	0xbf03a93d	-0.5143011
70	0x3e9cf304	0.30654156
71	0x3e810dde	0.25205892
72	0x3f3d4fd5	0.7394994
73	0xbf1b9005	-0.6076663
74	0xbf26e1d3	-0.6518833
75	0x3e8ccfe7	0.27502367
76	0x3ed61c83	0.41818628
77	0x3e79fab1	0.24412037
78	0x3f085785	0.53258544
79	0xbc185b30	-0.009299085
80	0x3e8f8ecf	0.28038642
81	0x3daa05c7	0.08301883
82	0x3efb66ad	0.49101773
83	0x3e531576	0.20613655
84	0xbf0a93f1	-0.5413199
85	0xbe374545	-0.17897518
86	0x3e9ef247	0.31044218
87	0xbe0016e1	-0.12508728
88	0x3eaf7ff5	0.3427731
89	0x3df3ba49	0.119007654
90	0xbea14349	-0.31496647
91	0xbdd24268	-0.10266572
92	0x3e35d706	0.17757806
93	0x3f0d4026	0.5517601
94	0x3ec75ee2	0.38939577
95	0xbe98b7f0	-0.29827833
96	0x3e856d55	0.26059976
97	0xbe17482b	-0.14773624
98	0x3efe69d2	0.4969011
99	0x3e64049f	0.22267388
100	0x3cdc4fcd	0.02689352
101	0xbebefd7b	-0.37302765
102	0x3ef21d61	0.4728804
103	0x3eb26032	0.34839016
104	0xbed3f123	-0.4139491
105	0xbd889533	-0.066690825
106	0x3d8b9b48	0.06816727
107	0x3e84f678	0.2596929
108	0xbe08a69f	-0.13344811
109	0x3ebb5e22	0.36595255
110	0x3e502dc6	0.20329961
111	0x3e05755c	0.1303305
112	0x3ec4dec6	0.38451213
113	0xbc149651	-0.009069041
114	0x3f1bc90a	0.60853636
115	0x3f077a67	0.52921146
116	0x3c5a4be9	0.013323762
117	0x3e01365e	0.12618396
118	0x3ebb97de	0.36639303
119	0x3ec61d41	0.38694194
120	0x3e6665f1	0.22499825
121	0xbec08be5	-0.3760673
122	0xbed40086	-0.4140665
123	0xbd306856	-0.043068253
124	0xbe672cf8	-0.22575748
125	0x3eafc428	0.34329343
126	0x3e3f1bf9	0.18663014
127	0x3e8d9421	0.27652076
128	0x3e286838	0.16446006
129	0x3e87ee23	0.2654887
130	0x3e1498b0	0.1451137
131	0x3ec2f966	0.380809
132	0xbe2538dc	-0.16134971
133	0x3e33b4e3	0.17549472
134	0x3e652604	0.22377783
135	0x3eb9c41e	0.36282438
136	0x3e81ec97	0.25375816
137	0xbe8f232d	-0.27956524
138	0xbe2efaad	-0.17087813
139	0xbec2d6e6	-0.3805458
140	0xbe9b6045	-0.30346885
141	0x3d7810d4	0.060562924
142	0xbe850fdb	-0.2598866
143	0x3e919bee	0.28439277

arith.constant14 f4 [32, 1, 1, 16]
0	0xbd2f888c	-0.04285483
1	0x3d93cbf7	0.072166376
2	0xbe8d4a8e	-0.27595943
3	0x3e1dc396	0.15406641
4	0xbde5a425	-0.11212949
5	0x3d5e9f20	0.054350972
6	0x3d84ff97	0.064940624
7	0xbb876f6e	-0.0041331565
8	0x3b27b3fe	0.0025589461
9	0xbc90c451	-0.017671736
10	0xbd1b4369	-0.037906084
11	0x3db57c45	0.08861593
12	0x3c4c5567	0.012471533
13	0xbdc1068b	-0.09425076
14	0xbba75622	-0.0051067034
15	0xbddd9970	-0.108202815
16	0x3d60600c	0.054779097
17	0x3c9ea128	0.019363955
18	0xbdaa6a92	-0.08321108
19	0xbb153c6a	-0.0022771605
20	0xbdc3c4c3	-0.09559014
21	0x3d9b5443	0.07584431
22	0x3dc072a6	0.093968675
23	0x3db98413	0.09058394
24	0x3d0109f1	0.03150362
25	0x3de38366	0.11109047
26	0x3df1b88b	0.11802777
27	0xbcefb31e	-0.029260214
28	0xbdee3322	-0.116308466
29	0xbda5ee29	-0.08102066
30	0x3da16631	0.078808196
31	0x3d0553a5	0.032550473
32	0xbd60cd24	-0.054883137
33	0x3d5723d2	0.052524395
34	0x3d24e3c4	0.040256277
35	0x3d55ae5e	0.052168243
36	0x3d825e8a	0.06365688
37	0xbcbee7a4	-0.023303814
38	0x3d0e7af7	0.034785237
39	0xbc83c11b	-0.01608329
40	0xbe056a3f	-0.13028811
41	0xbe057c86	-0.13035783
42	0x3d4da0c7	0.050202157
43	0x3d814223	0.06311443
44	0x3e0d16cb	0.13778226
45	0x3d7ed7ec	0.062217638
46	0xbd8db0ba	-0.069184735
47	0xbe2f8376	-0.17139992
48	0x3db4005f	0.08789133
49	0xbd40c57f	-0.047063347
50	0xbdb3850f	-0.08765613
51	0x3c22ba49	0.009932109
52	0xbe0edde7	-0.13951837
53	0x3e1fca87	0.15604602
54	0x3dac358c	0.08408651
55	0x3ca5718b	0.020195743
56	0x3d9afecd	0.07568131
57	0x3dd42cba	0.103600934
58	0x3daf4d3d	0.08559654
59	0x3d01c701	0.031683926
60	0xbe7a49a9	-0.24442162
61	0x3d901c05	0.07036594
62	0xbc8456f1	-0.016154738
63	0xbd11d2b8	-0.035601348
64	0xbe20684b	-0.15664785
65	0xbdb221b3	-0.08697834
66	0xbe047f12	-0.12939098
67	0xbc07546a	-0.008259872
68	0xbe4e7b6d	-0.2016427
69	0x3ca55eb1	0.020186754
70	0x3d6318dc	0.05544363
71	0xbe4b739e	-0.19868323
72	0x3d6e21a3	0.058137547
73	0x3d140291	0.03613526
74	0x3e0b2874	0.1358965
75	0x3e5086e6	0.2036396
76	0xbdbfb74e	-0.093611345
77	0x3d7ee82e	0.062233143
78	0xbca69197	-0.020333095
79	0x3cda0406	0.026613247
80	0xbdccf4a5	-0.100076
81	0xbd157e15	-0.036497194
82	0x3e1a5c6f	0.15074323
83	0x3c3c3d98	0.0114892945
84	0xbdac209e	-0.08404659
85	0xbe3f114f	-0.18658946
86	0xbd75d3bb	-0.060016375
87	0xbe3b79bd	-0.18308158
88	0xbdf2cc3d	-0.118553616
89	0x3dea4869	0.114395924
90	0x3d502734	0.050818637
91	0xbddace7e	-0.106839165
92	0xbdb468aa	-0.088090256
93	0x3d9f0ca7	0.07766085
94	0xbd9d2a42	-0.07674076
95	0x3e224e17	0.15850101
96	0xbca73b24	-0.020413943
97	0x3c380206	0.011230951
98	0xbe2a4d10	-0.1663096
99	0xbd82341e	-0.06357597
100	0xbd0b8d59	-0.034070347
101	0x3dd8bf20	0.10583329
102	0xbd14408b	-0.036194365
103	0x3c20dde0	0.009818524
104	0x3d2021c8	0.039094716
105	0x3e5ddfb1	0.21667363
106	0x3dc40061	0.09570385
107	0xbd9599d0	-0.07304728
108	0xbd15fa68	-0.03661576
109	0xbda44bdf	-0.08022284
110	0x3dc5cc94	0.09658161
111	0xbc7d86e4	-0.015474055
112	0xbd8186ea	-0.06324561
113	0xbe6ba83d	-0.23013397
114	0x3d8deaaf	0.06929528
115	0x3cd1cb1a	0.025609542
116	0xbcc74fa9	-0.024329977
117	0x3e5cb1e8	0.21552241
118	0xbd632ffd	-0.055465687
119	0x3e1cd6d3	0.15316324
120	0xbde35911	-0.111009724
121	0xbe26d469	-0.16291966
122	0x3d91ac19	0.07112903
123	0xbe2f8a19	-0.17142524
124	0x3d5c992a	0.053857006
125	0xbe1d93c9	-0.15388407
126	0x3bb655c3	0.005564423
127	0xbdc5fb7b	-0.09667107
128	0xbdcf1f19	-0.10113353
129	0xbdc20a43	-0.094746135
130	0x3cf74259	0.030183004
131	0x3d1c0b5c	0.03809677
132	0x3e02a2a2	0.12757352
133	0x3d4f3d92	0.050595827
134	0x3e0fcd44	0.14043146
135	0x3d8224df	0.06354689
136	0xbd97df08	-0.07415587
137	0x3e8c742e	0.27432388
138	0x3d43835a	0.04773269
139	0xbe01875a	-0.12649289
140	0x3d51512e	0.05110281
141	0xbc336fff	-0.010951995
142	0xbd488c60	-0.048961997
143	0xbe500e49	-0.2031795
144	0xbca82471	-0.02052519
145	0xbdb0ba27	-0.08629256
146	0x3c966ef3	0.018363452
147	0x3dfd92ff	0.12381553
148	0xbe326d8f	-0.17424606
149	0xbb77d81b	-0.0037818018
150	0xbcc8c75f	-0.02450913
151	0x3b9c7930	0.004775189
152	0x3e0451d9	0.12921847
153	0x3b2df11a	0.0026541413
154	0xbda35e90	-0.07977021
155	0xbdb63859	-0.08897466
156	0x3da17215	0.078830875
157	0x3dbe00c9	0.092774935
158	0x3c393407	0.011303908
159	0xbc39fb38	-0.011351399
160	0xbd82f0c3	-0.06393578
161	0x3e0a6743	0.13515954
162	0x3da4be6d	0.08044133
163	0x3d04a09d	0.032379735
164	0xbd70664d	-0.05869131
165	0x3b45cc72	0.0030181673
166	0x3cd846a2	0.026400868
167	0xbe88be98	-0.26707911
168	0x3e732cfd	0.2374763
169	0xbe735e05	-0.23766334
170	0x3e049b88	0.12949955
171	0x3e481028	0.19537413
172	0x3d8f56cf	0.06998979
173	0xbd51e425	-0.051242966
174	0xbb08d90a	-0.0020881318
175	0xbda85099	-0.08218498
176	0x3d4302e1	0.047610167
177	0x3e5f9f58	0.21838129
178	0xbdb2554b	-0.087076746
179	0x3c5ff985	0.01367033
180	0x3d97b019	0.07406635
181	0xb9e8b739	-0.00044387
182	0x3e7e649b	0.24843065
183	0xbd6db028	-0.058029324
184	0xbc90a070	-0.017654628
185	0x3d19414a	0.03741578
186	0x3d87a18a	0.06622608
187	0x3d8cec51	0.06881011
188	0xbe00a867	-0.1256424
189	0x3cfa29c1	0.030537488
190	0xbdf3bd45	-0.11901335
191	0xbccb241a	-0.024797488
192	0xbc771003	-0.015079501
193	0x3d445444	0.047931924
194	0x3b6571d9	0.0035010485
195	0x3dca2215	0.09869782
196	0x3d5c50bf	0.053787943
197	0xbd92d643	-0.071697734
198	0xbde6dc62	-0.112725034
199	0xbd5caa5e	-0.053873412
200	0x3e33d8e5	0.17563207
201	0xbdaaccba	-0.0833983
202	0xbe8f8105	-0.28028122
203	0x3d51802f	0.051147636
204	0x3d3307f9	0.043708775
205	0x3caf2598	0.02138023
206	0x3db7579d	0.08952258
207	0xbe005d6f	-0.12535642
208	0x3d5aeffe	0.05345153
209	0xbe528faf	-0.20562623
210	0x3e04f23a	0.12983027
211	0xbdf3ce43	-0.11904576
212	0x3d37eec0	0.044905424
213	0xbdaa2b2d	-0.083090164
214	0xbde0ca40	-0.10976076
215	0xbd7347d5	-0.059394676
216	0x3bf9eaec	0.007626882
217	0x3da3b591	0.079936154
218	0x3dd6a0dd	0.10479901
219	0xbd15b958	-0.03655371
220	0x3ce3a19e	0.027787026
221	0xbbd8c776	-0.0066155745
222	0xbbc344fc	-0.0059591513
223	0x3e23507f	0.15948676
224	0x3d0d3114	0.034470633
225	0x3dc92e32	0.09823264
226	0x3a9f339d	0.0012146119
227	0x3d9adeac	0.075620025
228	0xbc4fd80b	-0.012685786
229	0xbde65e70	-0.11248481
230	0x3e04b464	0.12959439
231	0x3d78e06d	0.060760904
232	0x3e17a342	0.14808372
233	0xbd3bb1be	-0.045823805
234	0x3d27a7d6	0.040931545
235	0x3cc8837e	0.024476763
236	0xbd37453d	-0.044743765
237	0x3d86cf1c	0.06582472
238	0x3ca83cd8	0.020536825
239	0x3d9804a2	0.07422759
240	0xbe1f23a7	-0.15540944
241	0xbd5a33d7	-0.053272095
242	0x3da3562c	0.0797542
243	0xbdf8b3ea	-0.12143691
244	0x3e0c2160	0.13684607
245	0x3dc80870	0.09767234
246	0x3d0bd07a	0.034134366
247	0xbe042f9f	-0.12908791
248	0x3d073dfd	0.0330181
249	0x3d83ed73	0.06441774
250	0x3da93887	0.08262735
251	0x3dd5583a	0.104172185
252	0xbd9ba2bb	-0.07599398
253	0x3de5600d	0.11199961
254	0xbe503961	-0.20334388
255	0x3d548227	0.051881935
